GraphCoarsening/params/checkpoint-best-acc.pkl (torch, 370791 bytes, 4 tensors)

conv1.bias f4 [64]
000000 84 04 26 3e dd 2b 20 3e 29 b0 e5 3d a0 f4 dd 3d
       0.1621266 0.15641733 0.112152405 0.10837674
000010 f5 00 04 3e 89 15 de 3d ac 70 32 bd a3 75 17 3e
       0.1289099 0.10843951 -0.043564484 0.14790969
000020 24 f6 c0 3d 74 71 f1 3d ad 68 3a 3e 78 79 2d bd
       0.094219476 0.117892176 0.18203993 -0.04235217
000030 a6 6b 83 3d db 8d f4 3d 8d be c7 3d 3f e3 23 3e
       0.06417017 0.11941119 0.097531416 0.16004656
000040 f1 e1 b4 3d bd e2 d5 3d 82 f4 0e 3e db 06 c5 3d
       0.088321574 0.104436375 0.1396046 0.09620448
000050 ff be db 3d 7e 24 ef 3d 63 a2 33 3e d1 8b 56 bd
       0.10729789 0.11676882 0.17542414 -0.052379433
000060 63 a7 71 bd b1 a8 f9 3d 5c 76 c8 3d 82 a7 b2 3d
       -0.058997523 0.121903785 0.097882 0.08723356
000070 f9 42 63 bd 9f 4f 68 bd ca d9 c0 3d ab d7 a9 3d
       -0.055483792 -0.056716558 0.0941654 0.082930885
000080 a0 56 95 3d 99 8f 28 3e f8 e4 94 3d fa 45 b7 3d
       0.07291913 0.16461028 0.07270235 0.08948894
000090 c7 af e8 3d af d4 96 3d 67 83 fb 3d 6a 33 b6 3d
       0.11361652 0.07364785 0.122809224 0.08896525
0000a0 30 2e b4 3d eb 31 f6 3d 97 50 c8 3d aa 9c af 3d
       0.08797872 0.1202124 0.09780996 0.08574803
0000b0 15 9f 67 bd 35 73 1b 3e 72 6f e2 3d b2 5c 1b bd
       -0.056548197 0.15180667 0.11056413 -0.037930198
0000c0 3a 4b 59 bd d3 a8 9a 3d 9b 2a 28 bd e8 50 08 3e
       -0.053050257 0.07551732 -0.041056257 0.13312113
0000d0 c2 c3 d4 3d 0e 3a aa 3d 23 35 e0 3d 52 3c e6 3d
       0.103889 0.08311854 0.10947635 0.11241974
0000e0 cd 60 0b 3e 31 67 d9 3d ed 19 a5 3d 3e 05 e1 3d
       0.13611145 0.10615385 0.080615856 0.10987328
0000f0 8f dc 19 3e eb 3f d0 3d a9 32 bd 3d 4d 04 0c 3e
       0.15025543 0.101684414 0.09238178 0.13673516

conv1.lin.weight f4 [64, 1433]
000000 ad 57 99 3d e2 ba c2 3c ba 36 25 3d 8d 11 59 be
       0.07487426 0.023770753 0.040335394 -0.21198101
000010 8c de 1d 3f 5f df 4a bd 7f 8b 9f 3c 2e 9f 83 3d
       0.61667705 -0.04952943 0.019475697 0.064268455
000020 24 de d7 3d da c2 72 3d d1 16 b0 3c f7 8d 78 3d
       0.10540417 0.059267856 0.021495255 0.060682263
000030 93 90 ab 3e c9 c2 48 bd d4 40 b9 3d bf 3b 52 3b
       0.3350874 -0.049013887 0.09045568 0.0032079068
000040 b5 fb 60 3d 40 82 0e bd a0 09 91 bc 50 b5 80 bd
       0.054927547 -0.034792185 -0.017704785 -0.062845826
000050 8d e4 8c ba 73 52 7b bc e0 fd 1d bc 0d e7 59 3c
       -0.0010749266 -0.015339482 -0.009643048 0.013299716
000060 11 b9 75 bc 60 cf 01 bd a8 13 56 3d 02 6c 02 3d
       -0.014997737 -0.03169191 0.05226484 0.031841286
000070 6f 36 60 3e f9 13 94 bd f7 15 40 be 82 7d d1 bb
       0.21895765 -0.07230372 -0.18758379 -0.0063931355
000080 18 71 e7 bc 00 0d 0f bc b2 50 43 bd ac 54 15 3e
       -0.02825217 -0.008731127 -0.04768438 0.14583081
000090 30 b6 b8 3c 76 31 ce 3b fc 6e 77 3e a6 a3 84 bd
       0.022547811 0.0062925173 0.24163431 -0.06476526
0000a0 bb d5 da 3e 82 f9 ef 3e fd c6 c0 3b 91 56 70 3d
       0.42741188 0.46870047 0.0058830963 0.058676306
0000b0 3f 97 93 3d 27 f8 72 bd f2 2b 30 bc 1e d6 2e be
       0.07206582 -0.059318688 -0.010752665 -0.17073867
0000c0 c4 b4 08 be da fc 8c bc 37 d7 24 be 20 0a d8 3e
       -0.13350207 -0.017210413 -0.16097723 0.42195225
0000d0 51 63 9c be f9 6c 15 3b 8d 54 4f bd 5d 69 04 3d
       -0.30544522 0.0022800548 -0.050617743 0.032327045
0000e0 25 cc e7 bd af 2a de bc f6 15 68 3d 27 9f 38 bd
       -0.11318234 -0.027119962 0.05666157 -0.045073655
0000f0 da 40 15 3c b3 4e 88 3e 6b ec 67 3c de 7d 80 be
       0.0091097 0.26622543 0.0141554875 -0.2509603
000100 7d 85 4f 3d e6 ca 80 bd e2 2c 91 bc 55 f1 2a be
       0.050664414 -0.062887 -0.017721597 -0.16693623
000110 35 f7 74 3b e8 9f 00 bd 42 82 19 be 93 f7 1d bd
       0.0037378792 -0.0314025 -0.14991096 -0.038566183
000120 00 de d0 bc 9d 8a 12 bd 5a 4d 83 bd e8 ac e3 bd
       -0.025496483 -0.035776723 -0.06411238 -0.111169636
000130 95 3d a3 be ac 23 08 3e 6f e7 92 3e a6 5b b7 39
       -0.3188292 0.13294858 0.28692195 0.00034972763
000140 2b c6 51 bd 36 db 6f be 8b dd 07 3e 8a 39 08 bd
       -0.05121438 -0.23423466 0.13268106 -0.033258
000150 43 a3 00 3d 76 88 8e be 56 3b 4d be a6 99 17 3d
       0.0314057 -0.27838486 -0.20042166 0.037011765
000160 44 73 12 be 58 cd 57 3e 07 19 aa 3b 06 ab 82 bd
       -0.14301783 0.21074426 0.005190972 -0.063802764
000170 33 73 62 3e 16 e8 d4 3e e5 e9 50 bd 79 61 49 3d
       0.22114258 0.41583318 -0.05100431 0.049165223
000180 09 dd 9f bd 3e 54 48 3d 50 f4 83 be e5 a5 02 3f
       -0.07805831 0.048908465 -0.25772333 0.51034385
000190 b4 3f 8a 3d c8 2f 45 bd cb af 7e 3d 96 c9 07 be
       0.06750432 -0.04814127 0.062179368 -0.13260493
0001a0 65 26 a9 bc b7 b5 fb bc 68 fb 9b bd dc 2c 14 bd
       -0.02064819 -0.030726297 -0.07616311 -0.036175594
0001b0 2f dd 9b be 67 1c 22 bd f2 a5 26 bd 59 6a 1a 3d
       -0.30442187 -0.039577868 -0.0406856 0.037699077
0001c0 45 be 1f bd 62 35 83 3b 9c 57 d8 bc 1f 66 5d 3d
       -0.038999815 0.0040041665 -0.026408963 0.05405247
0001d0 bb 9a 9d bd d3 e4 05 bc c8 15 96 3e 66 90 0b 3d
       -0.07695528 -0.008172232 0.29313493 0.034073256
0001e0 6e 9c 8c bd 9c 53 d7 bd 62 85 fd bd aa cc 09 bc
       -0.06865774 -0.10513994 -0.123789564 -0.008410612
0001f0 39 e6 9d 3c 4c 75 08 be 4c d5 9f bd 96 ed 2f 3d
       0.019274818 -0.13325995 -0.07804355 0.04295119
000200 a5 28 f0 bd 34 6b 95 bc 13 f9 f7 bc 10 f0 88 bd
       -0.11726502 -0.018239595 -0.030270135 -0.06686413
000210 b4 22 96 be 2f b6 7b bd 1d eb b7 3d 2c 7d 3d be
       -0.2932335 -0.06145304 0.08980391 -0.1850478
000220 c5 7c 85 bd 14 15 3e bc 1c 31 16 3d 5b 68 ac 3c
       -0.065179385 -0.011601705 0.036667928 0.021045854
000230 58 c3 f8 3e ee d9 02 3d 1b 86 89 3c 46 d8 9b bd
       0.48586535 0.031946115 0.01678758 -0.0760961
000240 c6 61 5c 3d 6b de 4a bc 54 9a 81 3b 25 19 7d 3c
       0.05380418 -0.01238213 0.003955165 0.015447889
000250 e9 f5 c7 bc 57 e5 4e 3e a0 0c 35 bd 70 f1 a9 3d
       -0.024409251 0.20204674 -0.044201493 0.08298004
000260 28 4a c4 3c b1 2a f1 3d ca da 88 3d a6 d5 e2 bd
       0.023961142 0.11775721 0.06682356 -0.110759065
000270 6e 1a e2 bd 1e f0 82 bd b4 8c 65 bb 81 71 20 3c
       -0.11040197 -0.06393455 -0.0035026493 0.009792686
000280 f9 0c d9 bd 9f 03 16 bd ee f8 ab ba ab d3 28 3d
       -0.105981775 -0.036624547 -0.0013120451 0.041217487
000290 1c 32 fe 3c 0e 6c 63 bd 4c bc 99 3d b7 e1 c1 3d
       0.031029753 -0.05552297 0.07506618 0.0946688
0002a0 37 b6 ea 3e 85 1d ee bc 65 f1 8b 3c d0 4c 42 3b
       0.45842144 -0.02906681 0.01708288 0.0029647835
0002b0 c0 cf 02 3e 3f d6 22 be 8c e9 8f bd 9c 4e 27 3a
       0.12774563 -0.15902041 -0.070269674 0.0006382258
0002c0 53 96 9a be 25 fe 1b 3c fe 25 19 3c 58 3b 32 be
       -0.30192813 0.009521042 0.009347437 -0.1740545
0002d0 10 15 e0 ba 19 3e 2d 3d 80 f3 c9 3c 3c 67 68 bb
       -0.0017096121 0.04229555 0.024652243 -0.0035461923
0002e0 e7 79 b6 bb 7d 73 af 3c 81 15 9e bd e3 f8 04 3f
       -0.005568731 0.021417374 -0.07718945 0.5194227
0002f0 31 9d da bd 2b c4 c5 3c 40 bc af 3b 70 30 22 3d
       -0.10674513 0.024141392 0.0053630173 0.039596975
000300 e5 85 14 3e 98 0f 74 3d d5 70 31 bd 2b 58 22 3b
       0.14504202 0.059585184 -0.043320496 0.002477179
000310 25 61 2a 3e 36 50 05 3d fb 5b 94 3d 25 6a 8b 3d
       0.1663862 0.0325472 0.072441064 0.06807355
000320 73 6b 42 bd 21 07 1f bd 88 0a a5 bc cb 2b 50 3d
       -0.047465753 -0.038825158 -0.020146623 0.050823014
000330 81 59 33 bb 81 45 90 be 56 0c 28 3d b4 f2 11 bd
       -0.002736658 -0.28178027 0.04102739 -0.03563185
000340 69 49 b7 3d 41 88 d8 3c 5d 94 a3 3d 3d f9 ba be
       0.08949549 0.026432158 0.079872824 -0.3651828
000350 98 bd 38 3e 97 8e 59 bd 6b ac bd bd 63 f6 2f bc
       0.18041074 -0.0531145 -0.09261402 -0.0107398955
000360 4b 61 2c bd cb 87 43 be 70 59 79 bd 0a cd a2 bd
       -0.042084973 -0.1909477 -0.06087631 -0.07949264
000370 0a f0 84 bd 4e 93 d5 bc c5 3e 35 3c 94 ad 30 bd
       -0.06491096 -0.026071217 0.011062329 -0.043134287
000380 74 79 ae 3d fb 0b 1a bd 56 4c 90 bc 47 00 da bc
       0.08519259 -0.03760908 -0.017614525 -0.02661146
000390 2a 95 89 3b 58 6c 91 3d 25 7d 75 3c be 7c 20 bd
       0.00419869 0.07100743 0.01498345 -0.039181463
0003a0 e9 a8 97 3d 80 40 65 3d e3 4f 9f 3e c7 0f a7 3d
       0.07405264 0.055969715 0.31115636 0.08157306
0003b0 ea 7e ba 3d 58 6b 16 be 60 6d 77 be 01 ba d7 ba
       0.09106238 -0.14689386 -0.24162817 -0.0016458632
0003c0 26 2d ca 3d 54 fe 8f bd a9 1c 8a bc 05 3e 6b bd
       0.09871893 -0.07030931 -0.01685937 -0.057432193
0003d0 cf a4 94 3d 7e 05 2e bd 51 fb 2f bb 7e 5e 0a bd
       0.07257997 -0.042485707 -0.0026852677 -0.03378152
0003e0 00 61 8e bc 0b a8 08 3b 7f 3e 9c 3e 19 53 cf 3d
       -0.017380238 0.0020852115 0.3051643 0.101232715
0003f0 95 c7 1f bc ff 7d 71 bd fb 89 79 3d b7 20 fe bd
       -0.009752174 -0.05895805 0.060922604 -0.124085836

conv2.bias f4 [7]
000000 46 5a 04 bf f6 90 01 be 3a a1 05 3e be 31 08 3f
       -0.51700246 -0.12652954 0.13049784 0.532009
000010 88 92 b7 bc f5 27 89 3e 2a 97 1e 3e
       -0.022408739 0.26788297 0.15487352

conv2.lin.weight f4 [7, 64]
000000 56 f7 4d bf 91 f4 02 bf 98 62 35 3e 97 a0 44 bf
       -0.8045553 -0.5115443 0.17713392 -0.7680754
000010 78 ba 07 bf 89 04 58 3f 40 c7 5e bc a6 f6 55 bf
       -0.53018904 0.8438192 -0.01359731 -0.8357948
000020 3a 58 f9 3e 57 a8 4f 3f 44 61 3a 3f a0 82 39 3c
       0.48700124 0.8111624 0.72804666 0.011322647
000030 36 cf 49 3f 02 ef 36 3f 69 8f 4c bf 25 45 b7 bd
       0.78831804 0.71458447 -0.79906327 -0.08948735
000040 71 5c ae be d0 66 21 3f f9 4c 47 3f ac 92 7f 3e
       -0.34054902 0.63047504 0.77851826 0.24958295
000050 ff 61 4b bf b4 80 2f 3f 15 61 36 bf 7f c0 71 bb
       -0.79446405 0.6855576 -0.71241885 -0.0036888418
000060 58 1f dc ba 56 f2 49 bf dd 2e 34 3f b3 e1 2f bf
       -0.0016794009 -0.788854 0.7038401 -0.68703765
000070 9b fa 7e 3b d0 6b dd bb 7b de 0c 3f 33 34 3e 3f
       0.0038906697 -0.006757237 0.5502698 0.742984
000080 1a 17 12 bf 3b 70 2e bf f7 9c 03 bf 8f d8 3d bf
       -0.570665 -0.6814 -0.51411384 -0.7415857
000090 3d b3 55 3f 16 12 35 bf 74 ea 3e 3c 37 32 3e 3f
       0.8347662 -0.7073072 0.011652578 0.7429537
0000a0 8e 11 b0 3d 1f 0c 38 bf 39 cd 49 3f 33 79 24 3f
       0.08597098 -0.71893495 0.7882877 0.64247435
0000b0 c1 46 ad bb ce ab 1f 3f 57 63 33 bf 81 28 c7 ba
       -0.0052879755 0.6237153 -0.70073456 -0.0015194566
0000c0 ec ea 8c 3b 2f 2d 4c 3f 69 07 a9 bb 90 9a 3d 3f
       0.004300466 0.79756445 -0.005158354 0.7406397
0000d0 c2 1e 3d 3f 09 8d 27 3f ec 65 08 3f 76 45 4a bf
       0.7387506 0.6544958 0.5328052 -0.7901224
0000e0 6d 4b 2e bf 8b 48 40 bf ab b5 25 bc 4a eb b1 3e
       -0.6808384 -0.7511069 -0.010114114 0.34749824
0000f0 d6 06 4b 3f 51 96 c0 3d 86 9d 48 3f d6 5e 05 bf
       0.79307306 0.094036706 0.7836536 -0.52097833
000100 5c 38 2b 3f 4b 60 ec be 24 d5 3c bf f3 10 0f bf
       0.6688287 -0.46167216 -0.73762727 -0.5588524
000110 06 1f fe be b4 c3 43 bf 55 0f 9b 3b 7a b2 36 bf
       -0.49633044 -0.76470494 0.0047320523 -0.71366084
000120 35 61 3a 3f 4b 06 b8 bd bf 80 67 bf fc 05 c4 bb
       0.72804576 -0.08985575 -0.90430826 -0.0059821587
000130 ab 38 1f bf 3d b5 48 bf d9 4c 22 3f 01 e7 23 3f
       -0.62195843 -0.7840155 0.6339851 0.6402436
000140 fa 6f 1e bf 5f 01 4c be 31 c4 5e bf b4 5e 45 bf
       -0.6188961 -0.19922398 -0.87018114 -0.7709763
000150 aa ed da 3e a3 43 f8 be c1 4d 5d bf 98 5e 24 bb
       0.42759448 -0.48489103 -0.8644677 -0.0025080796
000160 9d c6 aa ba 47 ea 2c 3f 03 9b 1d 3f 4d 09 26 3f
       -0.0013029162 0.6754498 0.61564654 0.6485794
000170 8d 48 86 bb 32 10 18 ba 26 12 1e 3f cb b2 0a 3f
       -0.004098004 -0.0005800753 0.6174644 0.54179066
000180 0e aa 2e 3f cd 67 02 bf b3 d5 d2 3e 9d 11 2a bf
       0.6822823 -0.5093964 0.41178665 -0.66433126
000190 e1 c9 3f bf 59 e9 14 3f 00 09 4a 3f bf bc f9 be
       -0.7491742 0.5816856 0.7891998 -0.48776814
0001a0 9e 19 0f bf fe 47 3b 3f f0 cb 0a 3f 15 5c 12 3f
       -0.55898464 0.73156726 0.54217434 0.57171756
0001b0 f1 d6 ab 3a 4f b2 25 bf ff 85 43 bf cb 41 6a bc
       0.0013110322 -0.647252 -0.76376337 -0.014297913
0001c0 26 45 b8 bb 7a 1f 06 3f 26 99 c6 b9 9d 4f 39 3f
       -0.0056234775 0.5239178 -0.00037879607 0.72387105
0001d0 3f 35 1a 3f 52 31 3b 3f d5 84 49 3f ea d0 1d 3f
       0.602375 0.7312213 0.7871831 0.616469
0001e0 77 b8 24 bf d2 cc 56 bf 41 7e be be 11 c7 4d 3f
       -0.6434397 -0.8390628 -0.372057 0.80381876
0001f0 1a de 59 bf 75 a5 2f 3f 6f a0 4c bf ea e9 04 3f
       -0.85104525 0.6861184 -0.799323 0.51919425
000200 09 00 36 3f d6 02 47 3f 5f a8 69 bf 6a 6b 43 bf
       0.71093804 0.777387 -0.9127254 -0.76335776
000210 3f 98 10 3f 55 23 21 bf 78 03 02 3b b8 c0 51 3f
       0.5648231 -0.6294454 0.0019838493 0.8193469
000220 44 92 3d bf fa 19 28 3f f3 c3 de 3e d9 39 29 3c
       -0.7405131 0.6566464 0.43508872 0.010328733
000230 a1 7b 2a bf 7a 10 38 3f 19 59 55 bf 9c 43 57 3f
       -0.6659489 0.7190014 -0.8333908 0.8408754
000240 69 61 0e 3e cc 7e 5f bf 12 14 56 3f a4 ca 58 bf
       0.13904347 -0.8730285 0.83624375 -0.84684205
000250 29 f6 46 bf 0b 89 1b bf 87 5d 51 3f 31 f7 18 3b
       -0.7771936 -0.60755986 0.81783336 0.0023340697
000260 de 65 1f 3c d0 59 3d 3f ee 98 22 bf 93 a4 5f bf
       0.009728877 0.7396517 -0.635146 -0.87360495
000270 e6 07 99 3b 28 7a ff ba a8 7b 42 bf 11 8b 58 bf
       0.004670131 -0.0019491361 -0.75969934 -0.845872
000280 80 39 32 bf 99 41 2b 3f 84 70 1e bf f0 4e 52 bf
       -0.6961899 0.6689697 -0.61890435 -0.821517
000290 70 6b 3f bf 06 72 49 bf 88 a1 44 3f 82 15 40 bf
       -0.7477331 -0.7868961 0.7680898 -0.7503282
0002a0 4a 15 05 3f 89 34 54 3f ff 49 54 bf fe c4 5d bf
       0.5198561 0.8289266 -0.8292541 -0.8662871
0002b0 cd 54 e8 3b aa da 2f 3f 50 98 39 bf f8 89 67 3a
       0.007090187 0.6869303 -0.72498035 0.00088325096
0002c0 94 81 48 3b af 29 2f bf 04 dd 0f bb a3 5e 4c bf
       0.0030594813 -0.6842298 -0.0021951804 -0.79831904
0002d0 b8 81 02 3f de 88 48 bf f4 6d 0a 3f 8b 7b 45 3d
       0.50979185 -0.7833384 0.54074025 0.048213523
0002e0 09 9c 1a 3f 5a ac 27 bf 9d ac 5c bf fa 0c 15 3f
       0.6039434 -0.6549736 -0.86200887 0.58222926
0002f0 cb 83 a3 3e 73 ed 65 bf 9b af 2d bf 86 b7 29 3f
       0.31936488 -0.89815444 -0.6784608 0.6629566
000300 b6 58 2d bf 5d b3 3f 3f 52 73 21 3f cb 18 2b 3f
       -0.6771349 0.7488306 0.6306659 0.66834706
000310 79 80 df be 7d 1e 9d be eb e9 ad 3a 3e e9 0e 3f
       -0.43652704 -0.30687323 0.0013268566 0.5582465
000320 cc 2b 56 bf 46 ba 58 bf 76 e3 d8 3e 79 d3 10 3b
       -0.8366058 -0.8465923 0.4236104 0.0022098704
000330 50 68 1a bf 13 6f 25 bf eb 7a 36 3f d9 20 14 3f
       -0.6031542 -0.6462261 0.7128131 0.5786262
000340 56 08 43 3f 6c 6c 36 bf 33 c2 57 bf 43 7a 58 3f
       0.76184595 -0.7125919 -0.842807 0.84561557
000350 94 14 31 bf 4a 01 dc bc 18 26 4e 3f c9 f3 b1 b9
       -0.69172025 -0.026856083 0.80526876 -0.00033941705
000360 8f 13 91 3b 10 e9 fa be 65 1b 18 3f fa c6 29 bf
       0.0044273804 -0.49005938 0.594168 -0.6631924
000370 f3 97 43 3b ed a3 46 ba f3 7e 1d bf a6 d2 32 3f
       0.0029845207 -0.00075775274 -0.61521834 0.69852674
000380 ab 30 28 bf 26 e1 44 3f bf 37 37 bf eb e7 03 bf
       -0.6569926 0.7690605 -0.71569437 -0.51525754
000390 4c 82 21 bf 0b cb 2d bf 51 4a 5b bf ad e9 4e bf
       -0.6308944 -0.67887944 -0.8566027 -0.8082531
0003a0 4b 80 9e be 5d 7e 51 bf 30 b6 04 3f 51 05 11 3f
       -0.30957255 -0.8183344 0.51840496 0.5664874
0003b0 89 f3 26 bb ed 85 48 bf 8f 66 48 bf 82 f3 24 bb
       -0.0025474748 -0.78329355 -0.7828149 -0.0025169556
0003c0 0c 38 57 3c 6c 97 59 bf 94 99 42 3c d5 02 50 3f
       0.013135921 -0.84996676 0.011877436 0.8125432
0003d0 49 75 44 3f e1 15 45 bf 68 a9 57 bf 11 10 1e bf
       0.7674146 -0.7698651 -0.8424287 -0.61743265
0003e0 d3 ac 33 bf 6e 91 5e 3f b3 85 28 3f fc b2 42 bf
       -0.70185584 0.8694066 0.6582901 -0.7605436
0003f0 0d 9c de 3e ce 06 f0 3e d5 6a 17 3f d6 65 19 bf
       0.43478432 0.46880192 0.5914739 -0.59921014
